…
Arguments:  Namespace(att_size=256, batch_size=128, clip=2, conv_kernels=[1, 3, 5, 9, 15, 21], device=device(type='cuda'), epochs=250, hid_dropout=0.4, in_dropout1d=0.2, in_dropout2d=0.2, learning_rate=0.0005, model='raw_awd_concat_hid', n_features=20, n_filters=20, n_hid=256, num_classes=10, save='save/best_model_May_21-15_32.pt', save_results='save/best_results_May_21-15_32', seed=123456, testset='data/Deeploc_seq/test.npz', trainset='data/Deeploc_seq/train.npz')
Loading data...
X_train.shape (11084,)
X_test.shape (2773,)
Number of Illegals:  16
Number of Illegals:  4
Loading complete!
Compilation model 1
Applying weight drop of 0.1 to weight_hh_l0
Applying weight drop of 0.1 to weight_hh_l0
Applying weight drop of 0.1 to weight_hh_l0
Model:  Model(
  (in_drop1d): Dropout(p=0.2)
  (in_drop2d): Dropout2d(p=0.2)
  (drop): Dropout(p=0.4)
  (embed): Embedding(21, 20, padding_idx=20)
  (convs): ModuleList(
    (0): Conv1d(20, 20, kernel_size=(1,), stride=(1,))
    (1): Conv1d(20, 20, kernel_size=(3,), stride=(1,), padding=(1,))
    (2): Conv1d(20, 20, kernel_size=(5,), stride=(1,), padding=(2,))
    (3): Conv1d(20, 20, kernel_size=(9,), stride=(1,), padding=(4,))
    (4): Conv1d(20, 20, kernel_size=(15,), stride=(1,), padding=(7,))
    (5): Conv1d(20, 20, kernel_size=(21,), stride=(1,), padding=(10,))
  )
  (cnn_final): Conv1d(120, 128, kernel_size=(3,), stride=(1,), padding=(1,))
  (relu): ReLU()
  (lstm): LSTM(128, 256, batch_first=True, bidirectional=True)
  (attn): Attention(
    (linear_in): Linear(in_features=832, out_features=256, bias=True)
    (linear_att): Linear(in_features=256, out_features=1, bias=False)
  )
  (dense): Linear(in_features=832, out_features=832, bias=True)
  (label): Linear(in_features=832, out_features=10, bias=True)
  (mem): Linear(in_features=832, out_features=1, bias=True)
  (awd): AWD_Embedding(
    (lockdrop): LockedDropout()
    (idrop): Dropout(p=0.1)
    (hdrop): Dropout(p=0.1)
    (drop): Dropout(p=0.1)
    (encoder): Embedding(21, 320)
    (rnns): ModuleList(
      (0): WeightDrop(
        (module): LSTM(320, 1280)
      )
      (1): WeightDrop(
        (module): LSTM(1280, 1280)
      )
      (2): WeightDrop(
        (module): LSTM(1280, 320)
      )
    )
    (decoder): Linear(in_features=1280, out_features=21, bias=True)
  )
)
Validation shape: (2771, 1000)
Training shape: (8297, 1000)
----------------------  epoch:   0 / 249 - time: 33.51s  ----------------------
| Train | loss 2.2549 | acc 30.93% | mem_acc 64.02% | Gorodkin 0.09 | IC 0.03 |
| Valid | loss 1.9476 | acc 43.01% | mem_acc 74.18% | Gorodkin 0.29 | IC 0.17 |
-------------------------------------------------------------------------------
…
