…
Arguments:  Namespace(att_size=256, batch_size=128, cell_hid_size=512, clip=2, conv_sizes=[1, 3, 5, 9, 15, 21], directions=2, epochs=250, hid_dropout=0.5, in_dropout=0.2, is_multi_step=False, is_raw=True, learning_rate=0.0005, n_features=20, n_filters=20, n_hid=256, num_steps=10, save='save/best_model_May_14-12_38.pt', save_results='save/best_results_May_14-12_38', seed=123456, testset='data/Deeploc_seq/test.npz', trainset='data/Deeploc_seq/train.npz')
Loading data...
X_train.shape (11084,)
X_test.shape (2773,)
Number of Illegals:  16
Number of Illegals:  4
Loading complete!
Compilation model 1
Applying weight drop of 0.1 to weight_hh_l0
Applying weight drop of 0.1 to weight_hh_l0
Applying weight drop of 0.1 to weight_hh_l0
AWD:  AWD_Embedding(
  (lockdrop): LockedDropout()
  (idrop): Dropout(p=0.1)
  (hdrop): Dropout(p=0.1)
  (drop): Dropout(p=0.1)
  (encoder): Embedding(21, 320)
  (rnns): ModuleList(
    (0): WeightDrop(
      (module): LSTM(320, 1280)
    )
    (1): WeightDrop(
      (module): LSTM(1280, 1280)
    )
    (2): WeightDrop(
      (module): LSTM(1280, 320)
    )
  )
  (decoder): Linear(in_features=1280, out_features=21, bias=True)
)
Model:  ABLSTM(
  (in_drop): Dropout2d(p=0.2)
  (drop): Dropout(p=0.5)
  (embed): Embedding(21, 20, padding_idx=20)
  (convs): ModuleList(
    (0): Conv1d(340, 20, kernel_size=(1,), stride=(1,))
    (1): Conv1d(340, 20, kernel_size=(3,), stride=(1,), padding=(1,))
    (2): Conv1d(340, 20, kernel_size=(5,), stride=(1,), padding=(2,))
    (3): Conv1d(340, 20, kernel_size=(9,), stride=(1,), padding=(4,))
    (4): Conv1d(340, 20, kernel_size=(15,), stride=(1,), padding=(7,))
    (5): Conv1d(340, 20, kernel_size=(21,), stride=(1,), padding=(10,))
  )
  (cnn_final): Conv1d(120, 128, kernel_size=(3,), stride=(1,), padding=(1,))
  (lstm): LSTM(128, 256, batch_first=True, bidirectional=True)
  (relu): ReLU()
  (attn): Attention(
    (linear_in): Linear(in_features=832, out_features=256, bias=True)
    (linear_att): Linear(in_features=256, out_features=1, bias=False)
  )
  (dense): Linear(in_features=832, out_features=832, bias=True)
  (label): Linear(in_features=832, out_features=10, bias=True)
  (mem): Linear(in_features=832, out_features=1, bias=True)
)
Validation shape: (2771, 1000)
Training shape: (8297, 1000)
----------------------  epoch:   0 / 250 - time: 36.51s  ----------------------
| Train | loss 1.9716 | acc 40.04% | mem_acc 73.24% | Gorodkin 0.24 | IC 0.12 |
| Valid | loss 1.6634 | acc 50.30% | mem_acc 82.41% | Gorodkin 0.40 | IC 0.28 |
-------------------------------------------------------------------------------
…
