…
Arguments:  Namespace(att_size=256, batch_size=128, clip=2, conv_sizes=[1, 3, 5, 9, 15, 21], device=device(type='cuda'), epochs=250, hid_dropout=0.5, in_dropout=0.2, learning_rate=0.0005, n_features=20, n_filters=20, n_hid=256, sa__save='save/best_model_May_21-00_46.pt', save_results='save/best_results_May_21-00_46', seed=123456, testset='data/Deeploc_seq/test.npz', trainset='data/Deeploc_seq/train.npz')
Loading data...
X_train.shape (11084,)
X_test.shape (2773,)
Number of Illegals:  16
Number of Illegals:  4
Loading complete!
Compilation model 1
Model:  Model(
  (in_drop1d): Dropout(p=0.2)
  (in_drop2d): Dropout2d(p=0.2)
  (drop): Dropout(p=0.5)
  (embed): Embedding(21, 20, padding_idx=20)
  (convs): ModuleList(
    (0): Conv1d(20, 20, kernel_size=(1,), stride=(1,))
    (1): Conv1d(20, 20, kernel_size=(3,), stride=(1,), padding=(1,))
    (2): Conv1d(20, 20, kernel_size=(5,), stride=(1,), padding=(2,))
    (3): Conv1d(20, 20, kernel_size=(9,), stride=(1,), padding=(4,))
    (4): Conv1d(20, 20, kernel_size=(15,), stride=(1,), padding=(7,))
    (5): Conv1d(20, 20, kernel_size=(21,), stride=(1,), padding=(10,))
  )
  (cnn_final): Conv1d(120, 128, kernel_size=(3,), stride=(1,), padding=(1,))
  (relu): ReLU()
  (lstm): LSTM(128, 256, batch_first=True, bidirectional=True)
  (attn): Attention(
    (linear_in): Linear(in_features=512, out_features=256, bias=True)
    (linear_att): Linear(in_features=256, out_features=1, bias=False)
  )
  (dense): Linear(in_features=512, out_features=512, bias=True)
  (label): Linear(in_features=512, out_features=10, bias=True)
  (mem): Linear(in_features=512, out_features=1, bias=True)
)
Validation shape: (2771, 1000)
Training shape: (8297, 1000)
----------------------  epoch:   0 / 249 - time:  7.94s  ----------------------
| Train | loss 2.3789 | acc 27.39% | mem_acc 62.59% | Gorodkin 0.00 | IC 0.00 |
| Valid | loss 2.2933 | acc 30.13% | mem_acc 58.59% | Gorodkin 0.00 | IC 0.00 |
-------------------------------------------------------------------------------
…
